improved_dqn/models/model.pth (torch, 16799 bytes, 4 tensors)

fc1.weight f4 [256, 11]
0.03534528 -0.2366655 0.32373083 -0.17930128 -0.44305667 0.32237613 -0.117405504 -0.0152348075
0.0069402107 -0.059202276 -0.4249045 -0.0019171775 -0.15529487 0.3180608 0.2786807 -0.12285153
-0.017757721 0.21960545 -0.01053998 -0.27288595 0.094085775 -0.3137578 -0.4771955 0.17656845
-0.06895634 -0.64483005 -0.24346781 0.016138703 0.34286836 -0.61961985 -0.6285599 0.32585984
-0.077220194 0.23075825 -0.05894469 0.121146604 0.13957545 -0.18191077 0.085552745 -0.3268831
-0.0352396 0.273789 0.1868903 0.29900867 -0.39683977 0.019181915 -0.39127782 0.24752764
-0.035067286 -0.2593535 -0.43484727 0.10789644 0.24827284 -0.13226828 -0.39176083 0.11999742
0.4621464 -0.144156 -0.24647631 0.050075237 0.12537098 -0.3317081 0.43672314 0.41318357
0.17776625 0.17600787 -0.13817379 -0.08462958 0.22017492 0.28762737 0.21877256 -0.20216373
-0.31643087 -0.4175067 -0.5909666 0.22662593 0.3698737 0.38731587 -0.02521334 -0.45695293
0.38853315 0.045410626 -0.053682078 -0.22467944 -0.18931505 -0.4162988 -0.09983129 0.48889646
-0.29917684 0.024826378 0.25092506 0.13308978 -0.030108202 -0.11461145 -0.2835949 -0.15460831
-0.10964233 -0.11303621 -0.20187007 -0.18234025 -0.39049554 0.21728376 -0.27827886 0.29054016
0.2222941 -0.5255884 -0.29457092 -0.06947084 -0.508276 0.21979193 0.30058512 0.04017628
0.2750483 -0.15836331 -0.10187644 -0.06455965 -0.062336378 0.1649526 0.20161623 0.1237114
0.16979586 -0.21009536 0.11059446 -0.41540307 0.31846008 0.38219768 0.30873638 -0.20560281
-0.33796924 -0.36385992 0.20355299 -0.29309902 0.3280931 0.22632748 -0.106672145 -0.027363734
0.2450485 0.09978687 -0.38554162 -0.036227148 -0.47145587 -0.17158584 0.19426297 -0.00059811934
0.3558581 -0.33470318 0.06203178 0.14936206 0.19914545 -0.38617286 0.005469319 -0.28216285
-0.044473674 -0.5431872 0.06407046 0.029810488 -0.23062184 0.09452832 -0.28108594 0.26396364
-0.0022127628 -0.16188264 -0.22076309 -0.077098995 -0.15396398 -0.13732915 -0.28092077 0.063787766
0.155016 -0.14401382 -0.11950373 0.04803537 -0.24000418 0.024395332 0.22447932 -0.03385677
-0.37315452 -0.008975662 -0.0815511 0.3291908 -0.4364897 0.09131254 -0.24796595 0.13800925
-0.5367679 0.24806589 -0.49844733 0.48379093 -0.1294683 -0.32498476 0.34048298 0.2280307
0.15875292 -0.2803311 -0.45756486 -0.36618432 -0.2374089 0.089474395 -0.30679512 -0.41515312
0.15322062 -0.37410378 0.2552685 0.004530173 0.14538544 -0.3366343 0.17856047 -0.2999411
0.087433375 -0.022140477 -0.3726003 0.079119384 0.2804673 -0.28509223 0.089354746 -0.36646426
-0.45987058 0.062285345 -0.2511454 0.064714395 -0.48760653 -0.046451952 -0.27172363 0.1344175
0.09302445 -0.18891132 -0.36420134 0.13736969 0.24360816 -0.4511042 -0.29947 -0.37609917
0.42437822 0.03334826 0.12942833 -0.091449685 0.25231415 0.17663966 -0.06763445 -0.16235898
-0.025542408 -0.045307435 0.21253529 0.0047710156 0.050672796 -0.33694458 -0.14456818 0.27396372
0.07947845 -0.33415836 0.34683838 0.029448783 0.20587555 0.1094257 -0.1464513 0.059375614
00000000: 36c6 103d 7158 72be 0cc0 a53e c19a 37be
00000010: 53d8 e2be 7c0e a53e 4c72 f0bd 6a9b 79bc
00000020: b56a e33b 167e 72bd 158d d9be cd49 fbba
00000030: 9e05 1fbe ddd8 a23e 3daf 8e3e 9599 fbbd
00000040: a478 91bc 40e0 603e e1af 2cbc b5b7 8bbe
00000050: 0bb0 c03d dda4 a0be f852 f4be 5cce 343e
00000060: fb38 8dbd 9513 25bf a04f 79be 5035 843c
00000070: 718c af3e 689f 1ebf 4de9 20bf 1ad7 a63e
00000080: 9f25 9ebd e44b 6c3e fd6f 71bd b61b f83d
00000090: deec 0e3e d146 3abe 4736 af3d 395d a7be
000000a0: 6657 10bd 122e 8c3e 2c60 3f3e aa17 993e
000000b0: 952e cbbe 6423 9d3c 9155 c8be e377 7d3e
000000c0: b7a2 0fbd fbc9 84be 4da4 debe cff8 dc3d
000000d0: 3c3b 7e3e 5671 07be e094 c8be 35c1 f53d
000000e0: 749e ec3e a19d 13be 4964 7cbe b11b 4d3d
000000f0: 4061 003e a5d5 a9be 2d9a df3e cc8c d33e
00000100: 5b08 363e 683b 343e 6e7d 0dbe 4652 adbd
00000110: 8975 613e e543 933e ea05 603e 0204 4fbe
00000120: 3a03 a2be 70c3 d5be 9649 17bf a110 683e
00000130: 1660 bd3e 444e c63e 358c cebc bcf5 e9be
00000140: d1ed c63e 7e00 3a3d bde1 5bbd 5e12 66be
00000150: cedb 41be 1e25 d5be 5974 ccbd a350 fa3e
00000160: b52d 99be b060 cb3c 4079 803e b048 083e
00000170: 7aa5 f6bc 68b9 eabd 5a33 91be a451 1ebe
00000180: 288c e0bd 877f e7bd 07b7 4ebe 67b7 3abe
00000190: 08ef c7be a27f 5e3e 917a 8ebe aec1 943e
000001a0: 11a1 633e f68c 06bf 00d2 96be ba46 8ebd
000001b0: 601e 02bf 2311 613e 4be6 993e e28f 243d
000001c0: 21d3 8c3e fe29 22be 98a4 d0bd da37 84bd
000001d0: 6e54 7fbd 56e9 283e 7c74 4e3e 675c fd3d
000001e0: f7de 2d3e 3d23 57be 597f e23d b6af d4be
000001f0: 330d a33e 6aaf c33e b212 9e3e 8b89 52be
00000200: 4e0a adbe d94b babe 3270 503e 1311 96be
00000210: d2fb a73e 64c2 673e ed76 dabd e929 e0bc
00000220: feed 7a3e 0f5d cc3d b665 c5be eb62 14bd
00000230: aa62 f1be 33b4 2fbe dfec 463e 1ccb 1cba
00000240: 0833 b63e 375e abbe 0915 7e3d 5ef2 183e
00000250: c9ec 4b3e 73b8 c5be f937 b33b a677 90be
00000260: 072a 36bd 510e 0bbf 6037 833d 2035 f43c
00000270: 2228 6cbe 1098 c13d 7fea 8fbe 3e26 873e
00000280: 0004 11bb 90c4 25be b80f 62be 14e6 9dbd
00000290: bca8 1dbe 03a0 0cbe d9d4 8fbe 29a3 823d
000002a0: 84bc 1e3e 5c78 13be 5fbe f4bd bcc0 443d
000002b0: a8c3 75be b8d8 c73c e8dd 653e 65ad 0abd
000002c0: 1c0e bfbe a80e 13bc 4304 a7bd b28b a83e
000002d0: 947b dfbe 1202 bb3d c9ea 7dbe 4c52 0d3e
000002e0: 9f69 09bf fc04 7e3e 7d34 ffbe 72b3 f73e
000002f0: 5793 04be 6764 a6be c953 ae3e e180 693e
00000300: 2090 223e 8f87 8fbe f145 eabe 837c bbbe
00000310: 521b 73be 5a3e b73d 4014 9dbe f38e d4be
00000320: dee5 1c3e 888a bfbe 8eb2 823e d871 943b
00000330: ecdf 143e 555b acbe 8ed8 363e e191 99be
00000340: 4510 b33d f25f b5bc 77c5 bebe 5809 a23d
00000350: 6999 8f3e 9cf7 91be 9fff b63d 34a1 bbbe
00000360: 2874 ebbe eb1e 7f3d 2196 80be fb88 843d
00000370: 90a7 f9be 6744 3ebd 5c1f 8bbe bea4 093e
00000380: 9a83 be3d f871 41be 9978 babe a4aa 0c3e
00000390: 6b74 793e 21f7 e6be 2254 99be 1290 c0be
000003a0: 1a48 d93e 2f98 083d dc88 043e f949 bbbd
000003b0: 522f 813e 07e1 343e ee83 8abd 6f41 26be
000003c0: 503e d1bc 4a94 39bd daa2 593e 2e56 9c3b
000003d0: 478e 4f3d 0084 acbe ae09 14be f944 8c3e
000003e0: 99c5 a23d ce16 abbe cd94 b13e 933e f13c
000003f0: 0ad1 523e 951a e03d 54f7 15be d833 733d

fc1.bias f4 [256]
-0.020413311 -0.0005952002 0.29945716 -0.17379421 0.14234103 -0.014986213 -0.058671135 -0.27579862
-0.281573 0.054418102 -0.10551126 0.547493 0.1263034 0.3884579 -0.27896762 -0.210113
0.20535289 0.09986219 0.09096756 0.07639764 0.40920356 0.15088665 -0.32536265 -0.21752755
0.047484703 0.011849308 -0.009505232 0.36783084 -0.26272348 0.8697818 0.1500617 0.2516765
-0.27179086 0.05711758 -0.3042428 -0.23409508 -0.12509419 0.46706685 0.41762742 0.22875334
-0.1652421 0.27838573 0.017074466 -0.07714092 0.014559925 0.4338882 0.150755 0.06926302
-0.18476526 0.19901516 0.23946522 -0.088431336 -0.11916176 0.06977038 -0.2303355 -0.0048734886
-0.2496466 -0.15399818 -0.10858775 0.33409458 -0.08607721 -0.28837806 -0.122393735 -0.27908245
0.19235101 -0.16467895 0.21610287 -0.35705376 -0.33103696 -0.026810134 -0.19652332 -0.24986981
-0.26330966 -0.22915226 0.21803837 0.02935197 -0.15131184 0.057492055 0.3322384 0.16171385
-0.062056784 0.29914317 -0.19745931 -0.1567104 -0.039602365 0.100751124 0.11123463 0.08438161
0.18883373 0.25141928 0.13326827 0.5850323 -0.118630864 -0.36307633 -0.22215253 0.40506515
-0.2042822 0.3370711 -0.03677169 -0.093359955 -0.1348074 -0.0025142627 -0.060138073 -0.10777963
-0.19369838 0.518439 -0.18676293 0.3763163 -0.07296672 0.007101482 -0.28029895 0.23478296
0.03821943 -0.016718095 0.039013635 -0.25088573 0.19814588 -0.067542 -0.1384843 -0.0072780903
0.009060108 -0.23644406 -0.41916922 -0.13713348 -0.2519654 0.4548487 -0.24683706 -0.35638696
0.3848351 -0.2130387 0.046980683 0.013258184 0.53809655 -0.12096355 -0.1754975 0.17709333
-0.11745929 -0.15135033 -0.12297938 -0.23265283 0.56628346 -0.34207752 -0.12476409 -0.19016932
-0.11755516 0.13371992 0.18829289 -0.30649316 0.12234795 -0.18169217 -0.03010746 -0.23230264
-0.07620891 -0.11620063 0.017265106 -0.027967615 -0.3047211 -0.009097864 0.25378525 0.16576618
-0.2791828 -0.12264887 0.20925282 -0.3305157 -0.14948897 -0.28948432 -0.078176804 -0.24504593
-0.020097291 -0.255352 0.26692486 0.024484236 -0.03237561 0.03539071 -0.27803272 -0.32824355
0.03941797 -0.053328604 -0.1379181 0.06463056 -0.0005807354 -0.027567564 -0.1086904 0.06476099
0.08833108 0.13091415 -0.2806431 0.32318056 0.14570732 0.108836114 0.017354187 -0.2100199
-0.14825156 -0.028648147 0.093808 -0.1707999 -0.114557 -0.06060773 0.24647169 -0.032728117
0.0031614113 -0.12964809 0.30702537 0.2831601 -0.060442228 -0.45691612 -0.3687609 0.1955628
-0.07831867 -0.22627382 0.0005903639 -0.35548475 -0.02990965 -0.119765975 -0.0022261597 -0.3617779
-0.08570491 0.3591853 -0.011245419 0.066968255 -0.3573973 0.16721532 0.3291675 0.08478858
-0.16089377 -0.020028416 0.17786816 0.050015595 -0.15712966 0.3261732 0.4195133 -0.078388385
0.07699839 -0.078981735 -0.22521491 -0.3746698 -0.012025473 0.08904957 0.09341955 0.55706894
-0.20756945 -0.28999403 -0.14522293 -0.27605057 0.0018287669 -0.32343146 -0.26821885 -0.0055493754
-0.048767693 0.25107178 -0.24615213 -0.057902016 -0.052492883 -0.10397828 0.07560163 0.43442276
00000000: d139 a7bc 3607 1cba 7352 993e 1cf7 31be
00000010: d9c1 113e bc88 75bc 2551 70bd 7a35 8dbe
00000020: 562a 90be 84e5 5e3d 4a16 d8bd 8028 0c3f
00000030: ae55 013e f4e3 c63e d8d4 8ebe dd27 57be
00000040: 0748 523e 8c84 cc3d 334d ba3d 5e76 9c3d
00000050: 2183 d13e 0882 1a3e ef95 a6be 8bbf 5ebe
00000060: 527f 423d 9a23 423c d5bb 1bbc 5354 bc3e
00000070: b183 86be 05aa 5e3f c6a9 193e bedb 803e
00000080: 2c28 8bbe 20f4 693d b6c5 9bbe 9fb6 6fbe
00000090: b118 00be 6323 ef3e 43d3 d53e 513e 6a3e
000000a0: 3a35 29be 9388 8e3e c0df 8b3c 0ffc 9dbd
000000b0: c08c 6e3c 9826 de3e 855f 1a3e c5d9 8d3d
000000c0: 1b33 3dbe a1ca 4b3e 5f36 753e 7d1b b5bd
000000d0: 150b f4bd c6e3 8e3d 12dd 6bbe c9b1 9fbb
000000e0: 5ca3 7fbe b3b1 1dbe 4163 debd 720e ab3e
000000f0: 4049 b0bd 4aa6 93be 91a9 fabd e5e3 8ebe
00000100: aaf7 443e 99a1 28be 124a 5d3e c0cf b6be
00000110: ad7d a9be eda0 dbbc 693d 49be dfdd 7fbe
00000120: 86d0 86be e4a6 6abe 7345 5f3e 8b73 f03c
00000130: 7ef1 1abe ca7c 6b3d 271b aa3e 5198 253e
00000140: 412f 7ebd 4b29 993e c632 4abe b178 20be
00000150: 1736 22bd 9b56 ce3d fbce e33d 44d0 ac3d
00000160: a15d 413e 07ba 803e 7a77 083e adc4 153f
00000170: bdf4 f2bd 24e5 b9be f47b 63be b364 cf3e
00000180: 5a2f 51be 9594 ac3e e99d 16bd 8133 bfbd
00000190: f30a 0abe 54c6 24bb 5753 76bd 91bb dcbd
000001a0: de58 46be 6bb8 043f c83e 3fbe 88ac c03e
000001b0: 936f 95bd 8cb3 e83b 5883 8fbe f26a 703e
000001c0: fa8b 1c3d 63f4 88bc c3cc 1f3d 1874 80be
000001d0: c1e6 4a3e 7653 8abd d4ce 0dbe 0c7d eebb
000001e0: d970 143c 641e 72be 599d d6be b86c 0cbe
000001f0: 9c01 81be eee1 e83e dbc2 7cbe 5a78 b6be
00000200: 1b09 c53e d126 5abe d16e 403d db38 593c
00000210: b2c0 093f bdbb f7bd 9eb5 33be f457 353e
00000220: 7f8e f0bd 95fb 1abe 9ddc fbbd 8b3c 6ebe
00000230: f4f7 103f c924 afbe 5184 ffbd bfbb 42be
00000240: c2c0 f0bd e0ed 083e dacf 403e acec 9cbe
00000250: 9091 fa3d 830d 3abe eca3 f6bc bee0 6dbe
00000260: 6b13 9cbd 99fa edbd 8d6f 8d3c 571c e5bc
00000270: 6704 9cbe 350f 15bc 24f0 813e 9cbe 293e
00000280: 0cf1 8ebe 552f fbbd 5f46 563e 5b39 a9be
00000290: a313 19be 4a37 94be 291b a0bd 52ed 7abe
000002a0: 13a3 a4bc 7fbd 82be 60aa 883e 2a93 c83c
000002b0: 4a9c 04bd d9f5 103d 4e5a 8ebe 8a0f a8be
000002c0: bd74 213d 186f 5abd 673a 0dbe 075d 843d
000002d0: 7e3c 18ba 5fd5 e1bc 1399 debd 69a1 843d
000002e0: ede6 b43d 5c0e 063e 74b0 8fbe ec77 a53e
000002f0: 4d34 153e 78e5 de3d 5e2a 8e3c 750f 57be
00000300: 42cf 17be 85af eabc 691e c03d 2be6 2ebe
00000310: dc9c eabd d03f 78bd 1363 7c3e eb0d 06bd
00000320: ae2f 4f3b 78c2 04be 6e32 9d3e 5cfa 903e
00000330: 4592 77bd e9f0 e9be 3bce bcbe 9d41 483e
00000340: 8a65 a0bd 53b4 67be a7c2 1a3a 1902 b6be
00000350: 1505 f5bc dd47 f5bd c3e4 11bb f43a b9be
00000360: 0e86 afbd 23e7 b73e b53e 38bc a726 893d
00000370: c7fc b6be 7e3a 2b3e a488 a83e a3a5 ad3d
00000380: 56c1 24be a212 a4bc 1223 363e 27dd 4c3d
00000390: 99e6 20be 2c00 a73e 72ca d63e 178a a0bd
000003a0: 55b1 9d3d 2dc1 a1bd bd9e 66be b8d4 bfbe
000003b0: 7d06 45bc 9f5f b63d c052 bf3d 129c 0e3f
000003c0: 168d 54be 197a 94be 52b5 14be 8056 8dbe
000003d0: 3cb3 ef3a cf98 a5be fb53 89be 89d7 b5bb
000003e0: a2c0 47bd 7b8c 803e 4e0f 7cbe aa2a 6dbd
000003f0: c702 57bd 91f2 d4bd 07d5 9a3d a96c de3e

fc2.weight f4 [3, 256]
0.15620062 0.051688515 0.51271677 -0.14796413 0.21309307 -0.08126577 -0.21016645 -0.23893656
-0.030507613 -0.12415284 -0.079685144 0.20695727 -0.12563536 0.23434846 0.02500493 -0.036055505
0.31070843 -0.20807508 0.22321258 -0.32982817 0.31221154 0.19306307 -0.1783359 -0.02277467
0.29860508 0.35122818 -0.3557197 0.25874835 -0.138163 0.38007465 0.15423746 0.01769841
-0.16967022 -0.32030433 0.09225229 0.035224676 -0.30670688 0.22761609 0.14950669 0.1364613
0.18646537 0.06732603 -0.28731865 -0.0837827 0.14903297 0.19457725 0.28090605 0.4055177
-0.14240551 0.48888063 0.24385129 -0.22237127 -0.5268144 0.03482245 -0.0024174885 0.057100847
-0.06464469 0.0159359 0.13584459 0.39274374 -0.32878816 0.008812644 0.07957509 -0.26985043
0.16537252 -0.12992422 0.006803362 0.0048241173 -0.016390482 -0.24879918 -0.019544402 0.111986764
0.03588527 -0.05794235 0.09168776 -0.02680839 0.053626306 0.33746055 0.39747798 -0.49353752
-0.5030341 0.25130814 -0.49266118 -0.2322468 -0.10169437 -0.118068606 -0.17368917 -0.312148
0.33489776 0.17651364 0.1104337 0.3849776 0.04355509 0.0155998375 -0.13947815 0.09197006
0.17979544 0.19105454 -0.51575494 0.05042281 0.027143825 -0.3448509 0.025618875 -0.41266817
-0.081159875 0.44203335 -0.59633386 0.4289008 -0.50221276 0.23229994 0.20749605 0.47074014
0.0067157783 -0.23532416 -0.31421176 -0.27098688 0.13131785 0.00390768 -0.26009136 -0.5095745
-9.9036144e-05 -0.12800214 -0.15742576 -0.30766514 -0.2242488 0.10200364 -0.17136367 0.0131937135
0.18287432 -0.036206618 -0.47355634 0.29368415 0.24938223 -0.10212957 -0.014464043 0.26685876
0.049489126 -0.24105707 -0.11392271 -0.33218226 0.2854106 -0.020157482 -0.06690885 -0.024832038
-0.063427426 -0.33083567 0.1939047 -0.15509383 -0.20091929 0.03768672 0.1838154 -0.16689608
-0.0760783 -0.3441315 0.24665214 0.019271819 -0.22421394 -0.34068236 -0.4379247 -0.20350826
-0.02341295 -0.12114186 0.40557456 -0.1050685 -0.6860944 0.14999126 0.009764618 -0.11308318
-0.21473144 -0.2169688 0.38932186 -0.44394225 -0.5061647 0.2130947 0.018117752 0.13770635
0.055768654 -0.08133355 -0.5588427 -0.11040828 -0.16447465 0.26334214 -0.04390737 0.25880912
0.21930759 0.09683063 0.03610403 0.18127999 0.39313513 -0.07210715 0.01864484 -0.26655832
0.062613204 0.5251705 0.32484248 -0.14664564 0.22965878 -0.2614718 0.06324082 -0.13913342
0.0019768998 -0.025180548 0.422911 0.038257085 -0.121771894 -0.0008834127 0.06982223 -0.009620665
-0.0075099748 0.12556806 0.24580738 -0.03616338 -0.41164544 0.046325542 -0.29004982 -0.014266924
-0.009809745 0.2945658 0.12429398 -0.16451448 -0.3492837 0.41477987 0.24898206 0.29933685
-0.4797692 0.22113119 -0.19259626 0.21533912 -0.06809185 0.53785014 0.29735637 -0.13076614
-0.18444924 -0.005932393 -0.12970753 -0.050706618 0.37686172 0.24964167 0.14941822 0.19417533
-0.37030193 0.021773169 -0.30794173 -0.04133865 0.56050754 -0.16186458 0.02419497 0.3152659
-0.6330673 0.59244514 0.010019755 -0.033301648 -0.4063301 -0.31724003 -0.42875406 0.21996212
00000000: 0ef3 1f3e 56b7 533d 6841 033f e983 17be
00000010: 1235 5a3e ab6e a6bd e035 57be c9ab 74be
00000020: 1aeb f9bc d843 febd f731 a3bd 9bec 533e
00000030: 8ea6 00be 0bf9 6f3e 24d7 cc3c f0ae 13bd
00000040: 2d15 9f3e a211 55be d791 643e 3ddf a8be
00000050: 31da 9f3e 53b2 453e b09d 36be f291 babc
00000060: c4e2 983e 2ed4 b33e e420 b6be aa7a 843e
00000070: 9a7a 0dbe 2599 c23e 6df0 1d3e 42fc 903c
00000080: 08be 2dbe eefe a3be c5ee bc3d c047 103d
00000090: af08 9dbe 3114 693e 4818 193e 83bc 0b3e
000000a0: c7f0 3e3e 3be2 893d 6e1b 93be 4496 abbd
000000b0: 199c 183e 423f 473e ebd2 8f3e 04a0 cf3e
000000c0: c0d2 11be 904e fa3e 27b4 793e 4bb5 63be
000000d0: 4fdd 06bf fca1 0e3d ba6e 1ebb 94e2 693d
000000e0: 6f64 84bd 018c 823c d81a 0b3e b515 c93e
000000f0: ec56 a8be e862 103c 44f8 a23d d629 8abe
00000100: 6a57 293e db0a 05be bdee de3b a113 9e3b
00000110: 5545 86bc 36c5 7ebe 951b a0bc 5159 e53d
00000120: 6ffc 123d f554 6dbd cbc6 bb3d 459d dbbc
00000130: 42a7 5b3d a1c7 ac3e 3c82 cb3e f3b0 fcbe
00000140: d8c6 00bf 76ab 803e 163e fcbe 1bd2 6dbe
00000150: 2345 d0bd f4cd f1bd 93db 31be ddd1 9fbe
00000160: b877 ab3e febf 343e 102b e23d c91b c53e
00000170: d266 323d 7696 7f3c 5cd3 0ebe cc5a bc3d
00000180: 4c1c 383e cda3 433e 8408 04bf 2688 4e3d
00000190: ba5c de3c 4c90 b0be adde d13c 3e49 d3be
000001a0: 2637 a6bd 3252 e23e 56a9 18bf e398 db3e
000001b0: 0491 00bf 09e0 6d3e d879 543e da04 f13e
000001c0: 0810 dc3b d1f8 70be 5de0 a0be cbbe 8abe
000001d0: 3078 063e ff0b 803b b22a 85be 7973 02bf
000001e0: a0b1 cfb8 fe12 03be 3834 21be 4986 9dbe
000001f0: 7aa1 65be 49e7 d03d f579 2fbe 722a 583c
00000200: 6843 3b3e 644d 14bd fa75 f2be c55d 963e
00000210: 0e5e 7f3e 4f29 d1bd 98fa 6cbc b6a1 883e
00000220: 1cb5 4a3d aad7 76be 4f50 e9bd cb13 aabe
00000230: 5721 923e 4e21 a5bc 8207 89bd 8f6c cbbc
00000240: 3de6 81bd 4b63 a9be f48e 463e ebd0 1ebe
00000250: c9bd 4dbe 645d 1a3d 1b3a 3c3e cee6 2abe
00000260: f1ce 9bbd 0132 b0be 6192 7c3e efdf 9d3c
00000270: 5798 65be eb6d aebe ab37 e0be 7864 50be
00000280: 84cc bfbc 3919 f8bd 78a7 cf3e 272e d7bd
00000290: e2a3 2fbf 4f97 193e c7fb 1f3c 2798 e7bd
000002a0: 8fe2 5bbe 122d 5ebe 3255 c73e 664c e3be
000002b0: 0394 01bf 7f35 5a3e ae6b 943c e502 0d3e
000002c0: ac6d 643d 3492 a6bd 5110 0fbf bc1d e2bd
000002d0: 0b6c 28be c8d4 863e 37d8 33bd a182 843e
000002e0: 2b92 603e 234f c63d d2e1 133d 76a1 393e
000002f0: 0249 c93e eaac 93bd 10bd 983c 557a 88be
00000300: 5a3b 803d 9371 063f c151 a63e 462a 16be
00000310: ac2b 6b3e a2df 85be 6784 813d fe78 0ebe
00000320: e08e 013b 7047 cebc ca87 d83e 76b3 1c3d
00000330: 8b63 f9bd d394 67ba f5fe 8e3d fe9f 1dbc
00000340: 3c16 f6bb ea94 003e eeb4 7b3e 0d20 14bd
00000350: 31c3 d2be dabf 3d3d 6981 94be d1bf 69bc
00000360: 0db9 20bc 54d1 963e d88d fe3d 7c76 28be
00000370: 50d5 b2be 075e d43e 27f5 7e3e ae42 993e
00000380: 4fa4 f5be 3770 623e f437 45be dc81 5c3e
00000390: bd73 8bbd 8cb0 093f 183f 983e 8fe7 05be
000003a0: 43e0 3cbe 8564 c2bb 0dd2 04be beb1 4fbd
000003b0: 05f4 c03e 11a2 7f3e 1701 193e e6d5 463e
000003c0: 3798 bdbe a55d b23c 8aaa 9dbe b752 29bd
000003d0: 6c7d 0f3f d4bf 25be 8834 c63c 886a a13e
000003e0: b310 22bf 7caa 173f e629 243c 4f67 08bd
000003f0: 800a d0be 496d a2be a785 dbbe c03d 613e

fc2.bias f4 [3]
0.19642606 -0.13962233 -0.05001892
00000000: ea23 493e 28f9 0ebe a4e0 4cbd
