models/model.pth (torch, 16799 bytes, 4 tensors)

fc1.weight f4 [256, 11]
000000 db 5d 1e be 53 89 a1 3e b7 de 5a be 1e ca 14 3e
       -0.1546549 0.31550083 -0.21374021 0.14530227
000010 5a d3 0f 3e 7c 84 35 be 19 1b 6d be b0 12 af be
       0.14045468 -0.1772632 -0.23154868 -0.34193945
000020 a9 e8 96 be fb c0 92 be 6a 26 23 3d c3 a6 68 3e
       -0.2947438 -0.28662857 0.039831556 0.22719865
000030 45 7f 92 be 8e 38 82 be d8 0f 04 3e 6f f4 95 be
       -0.28612724 -0.25433773 0.12896669 -0.2928805
000040 fc 67 50 3d d3 6a 5a 3e c3 93 1e 3e 65 c5 13 3d
       0.050880417 0.21329813 0.15486054 0.036076922
000050 cc c9 4c be f8 2e 4c be fa 09 cb 3d 75 31 18 bf
       -0.19998854 -0.19939792 0.09914012 -0.59450465
000060 45 53 9c 3e 80 fb a1 bd 75 cf 13 be 04 13 88 bd
       0.3053228 -0.07909298 -0.14434607 -0.06644252
000070 f1 82 37 bd 38 bf 6f 3d 64 61 3a 3e 9c 0d 99 3e
       -0.04480261 0.05853197 0.18201214 0.29893196
000080 66 33 82 3e f2 4c aa 3e 0c c8 e9 be 1c 95 b9 3e
       0.2542984 0.3326183 -0.45660436 0.36246574
000090 cd e4 a0 3e ee 8b 1a bd ea 6c 43 3e 4c fe fd 3d
       0.3142456 -0.037731104 0.19084516 0.12402019
0000a0 9e 24 82 be 5a 5c 8b 3e 04 f7 40 bd c7 18 c7 bd
       -0.25418562 0.27218896 -0.047110572 -0.09721523
0000b0 d1 70 9c bd 4e 70 01 3f d8 fa ce be b6 b9 92 3e
       -0.076387055 0.5056199 -0.40425754 0.2865731
0000c0 77 4b 61 3e 9d f9 c0 ba 2d 8e 97 be 13 3a 32 be
       0.22001444 -0.0014722828 -0.2960066 -0.17404966
0000d0 00 81 04 3b 13 06 67 3d 92 31 93 be e7 31 0a bd
       0.0020218492 0.056402277 -0.28748757 -0.033738997
0000e0 ef bb 99 3d 7f 69 c6 3e 44 a0 89 bd a5 9a 1d be
       0.075065486 0.38752362 -0.06720021 -0.15391023
0000f0 da 5d 3e be 82 43 70 3d b4 cc 95 3e a2 77 4e 3e
       -0.18590489 0.05865813 0.2925774 0.20162824
000100 a3 ef a0 3c 06 63 74 3d 8c 87 8c be c8 a5 14 bc
       0.019645518 0.05966475 -0.27447164 -0.009072728
000110 26 3c 78 3d 77 5c 61 be 36 61 74 be 88 87 a6 3e
       0.060604237 -0.22007929 -0.23865208 0.32525277
000120 ec 12 1f be 11 d2 40 be 0d 75 96 be 91 6b 9c 3e
       -0.15534562 -0.18830134 -0.29386178 0.30550817
000130 9a 03 e5 3d c0 b5 ae be 99 ba cf 3e 90 c6 e3 3e
       0.111823276 -0.3412304 0.4057205 0.4448743
000140 34 56 9d 3d df 56 75 3d 4b 05 90 3e 3c 9d b3 be
       0.076824576 0.0598973 0.28129038 -0.35080898
000150 d3 6f 7b 3e eb bf 73 3e 2f 50 02 be 44 bc f7 bc
       0.24554376 0.2380368 -0.127259 -0.03024114
000160 55 2a 64 bd a6 60 1e 3d 06 59 e2 bd a7 0a a7 3e
       -0.055704433 0.03866639 -0.11052136 0.32625315
000170 28 a6 40 be 41 7f 79 be 1b 8e 7f be d8 6d 44 be
       -0.18813384 -0.2436495 -0.24956553 -0.19182527
000180 02 8d b0 3e 4c 92 56 bd 7a 74 d5 3e d9 8c 07 be
       0.3448258 -0.052385613 0.41690427 -0.13237323
000190 7e b5 96 3b 51 b9 9f be 45 1f ce 3e 91 39 3d 3e
       0.0045992723 -0.31196073 0.40258232 0.18478991
0001a0 4e 2e 8d 3e c3 7d 3b be cc 9a 13 be ed 5b 00 3c
       0.2757439 -0.18309693 -0.14414519 0.007834417
0001b0 cc 9f 3d be 4d 1f 22 bf f3 79 ac be 27 14 fe bd
       -0.18517989 -0.6332901 -0.3368679 -0.124061875
0001c0 ef 3c e4 3e c6 41 2f be 11 1d 51 be 9d 94 c0 be
       0.4457774 -0.17114934 -0.20421244 -0.37613383
0001d0 6b ce 96 3d 47 83 02 3e f0 d4 04 bf a3 ab e2 3d
       0.0736359 0.12745391 -0.51887417 0.11067893
0001e0 50 97 42 be 0a 3a 8c 3d bc 19 87 be 3f fe a2 be
       -0.19003034 0.068470076 -0.2638682 -0.318346
0001f0 c2 17 f5 3e e5 9e c5 bd c9 c5 c4 be 67 11 22 be
       0.47869688 -0.09649447 -0.38432148 -0.15826951
000200 26 62 11 3e 6e 84 00 bf a6 6e da be 84 a0 03 bf
       0.14197597 -0.5020207 -0.42662543 -0.514168
000210 9e fe 4b be 7b 8a 5a bd e9 8a 04 3f 98 d7 a3 bd
       -0.19921347 -0.05335472 0.5177446 -0.080001056
000220 9f dc 00 be 3d 23 86 3d 19 6b 63 be ea 3c bf bc
       -0.1258416 0.0654969 -0.22208823 -0.023344476
000230 b1 ba 85 be ea 9f e7 3d b2 1d 32 3e 8f 35 08 3e
       -0.26118997 0.11309798 0.1739414 0.13301681
000240 fb ec d9 3e 45 e5 ef bc b3 a4 8b be 71 b1 f7 bc
       0.42563614 -0.029284129 -0.27274093 -0.030235978
000250 0f c1 4a be e7 ce 08 be a0 f7 ac 3e b7 3a ab 3e
       -0.19800209 -0.13360177 0.33782673 0.33443233
000260 d9 10 92 3e 85 8a 47 3e 52 c3 d4 be 5a 88 e2 3e
       0.2852848 0.19486435 -0.41555268 0.44244653
000270 67 e3 be 3e e1 0e 0f be e6 fb 23 be eb ff 6e 3e
       0.3728287 -0.1397052 -0.1601406 0.23339812
000280 ad d4 37 3e b4 a1 7c be e6 a5 a3 be bc e6 e5 3d
       0.17952223 -0.2467106 -0.31962508 0.1122565
000290 71 f2 b2 3e 22 82 1f bd 20 3b b7 be dc 41 73 be
       0.34950593 -0.038942464 -0.35787296 -0.23755592
0002a0 71 ea be 3e bd 52 21 be be 7f 87 be 8b 42 a1 be
       0.3728824 -0.15754218 -0.26464647 -0.3149608
0002b0 95 4b 00 3e 7a dd e6 be 67 1a e9 bd 26 17 cd be
       0.12528832 -0.45090848 -0.11381989 -0.40056723
0002c0 1b 4a c3 3e c6 ac 06 3e 2c 8f e8 bc ab a7 a7 be
       0.38142475 0.13151845 -0.028388582 -0.32745108
0002d0 da 8c 90 3e 5a 57 fb 3c a2 49 11 3d 07 96 45 be
       0.2823246 0.0306813 0.035470612 -0.19295512
0002e0 3c 40 1e be 0f b6 b4 3d 2d e1 02 bd 4b 09 fe bd
       -0.15454191 0.088237874 -0.031953026 -0.12404116
0002f0 48 4c 2b be 32 62 1d 3f e6 ed a9 3d eb 7f 93 be
       -0.16728318 0.6147796 0.08297329 -0.2880853
000300 ac 25 16 bd 80 42 33 3e 9f 49 21 be f7 4f 0a bf
       -0.03665702 0.17505836 -0.1575074 -0.54028267
000310 3d b8 5d 3d 52 f4 e5 3d 23 f7 c2 3e 68 ef a8 be
       0.05413078 0.11228241 0.38079175 -0.32995152
000320 7c a3 95 be cf bf f0 bd 47 91 ab 3d a6 7a 64 3e
       -0.2922629 -0.117553346 0.08377319 0.22312412
000330 2f 4d eb bc be 5f 9d 3e 98 6c 54 3e a4 4a ea 3d
       -0.028723327 0.30737108 0.2074455 0.11440018
000340 a6 dd 86 3e ab 2d 9b 3d ec 7a ef bd e3 e6 ec bd
       0.2634098 0.0757707 -0.11693367 -0.11567476
000350 cb db 1e 3d f1 fa 37 bd b1 66 5f be 07 19 46 3e
       0.03878383 -0.04491705 -0.21816517 0.19345485
000360 2c 2a be 3e 96 31 88 be 04 e2 70 be cf ac 45 3e
       0.3714155 -0.2660033 -0.23523718 0.19304202
000370 f7 00 8a 3e b9 f8 a0 3e 85 a0 52 be 97 36 92 3e
       0.2695386 0.3143976 -0.20569046 0.28557274
000380 12 1a 91 be 74 8b c4 3d 0e 32 c4 bd ee ed ab be
       -0.28340203 0.09596911 -0.0957986 -0.33579963
000390 87 67 ad 3e 43 99 e7 bb 3a 42 6d 3e 9e 1f 49 3b
       0.33868048 -0.007067831 0.23169795 0.0030689011
0003a0 e0 04 8c 3d f7 58 de bd be 35 50 3c 27 5e 00 3d
       0.06836867 -0.108568124 0.012708126 0.03133979
0003b0 46 01 e2 3c da 37 84 be 6c dc df 3d 41 cb 77 3d
       0.027588498 -0.2582386 0.10930714 0.060496572
0003c0 f2 17 ea 3d f9 ef f2 3e d9 e8 d2 3e 3c 8a b2 3d
       0.114303485 0.4744871 0.41193274 0.08717772
0003d0 2a 51 f1 be c0 b0 0a 3d 68 fa 9f bc 6a ec cc 3b
       -0.47132236 0.03385997 -0.019528583 0.0062537687
0003e0 5c 0f 18 bd 9b e5 99 3b 99 a2 fb 3d 86 ca a1 3e
       -0.037124023 0.0046965606 0.122868724 0.31599826
0003f0 b3 bb 7b 3e 75 11 f4 bd 59 61 1f 3f 68 22 40 bd
       0.2458332 -0.11917392 0.62257916 -0.046907812

fc1.bias f4 [256]
000000 1e 4f 1c bc 19 af b5 3d 33 23 29 bc 06 1b d0 bd
       -0.009540347 0.08871288 -0.010323334 -0.10161404
000010 89 f5 f7 3d 0f 9c 25 3e 0d e8 2e be e2 d7 c3 3d
       0.12107379 0.16172813 -0.17080708 0.09562661
000020 5b ed 16 be 6b a3 00 3f 59 f7 bf 3d 28 2f 85 3e
       -0.14738981 0.50249356 0.0937335 0.2601254
000030 5a dc d3 bd bd ff 5c bd c5 4f 7f bd 55 48 e3 3d
       -0.10344763 -0.05395483 -0.062331934 0.110977806
000040 96 db 06 be 00 bf 64 3e f6 4a 9c be 0b ba a2 3d
       -0.13169703 0.22338486 -0.3052594 0.07945641
000050 e1 56 05 bd 6a 8a cc bd c3 6f 01 be b9 8c 65 3e
       -0.032553557 -0.09987338 -0.1264029 0.22416963
000060 37 f8 8f bd cd 25 45 3e 97 6f f6 3c 37 5a 8f 3d
       -0.07029765 0.19252701 0.030082507 0.06999629
000070 86 3b 2a 3d 84 a8 30 be 47 5a 8c bd 71 2c c1 3d
       0.041560672 -0.17251784 -0.068531565 0.09432305
000080 0a 5d 6d bd 7d 06 33 be 2d a9 ad bd 9c b7 ad be
       -0.057950057 -0.17482944 -0.08479533 -0.33929145
000090 13 b1 81 be 54 84 aa be 37 82 dd bc 89 86 ab bc
       -0.2533041 -0.33304083 -0.02703963 -0.020938175
0000a0 5b 2e c2 3e ee 05 c5 3d 10 b2 1c 3e 0b 53 d7 bd
       0.3792599 0.096202716 0.153023 -0.10513886
0000b0 e3 10 87 bd 7b 0b f6 bd b7 61 a5 be c4 a3 26 3d
       -0.06595018 -0.120139085 -0.32301113 0.040683523
0000c0 7e b0 4e be f4 22 1c 3e 5a 88 be 3d 85 38 52 be
       -0.20184514 0.15247709 0.09303351 -0.20529373
0000d0 e0 ae 7c 3c b1 f1 3b 3e 1f f1 ea 3d f4 c6 91 3d
       0.015422553 0.18353917 0.114717714 0.071180254
0000e0 e8 52 54 be d5 9b 56 3e 11 85 b8 3c c6 6e 13 3d
       -0.20734751 0.20957883 0.022524389 0.035994314
0000f0 99 f7 91 be b2 98 0d 3e 49 28 cb be 22 77 6b bd
       -0.28509215 0.1382778 -0.39679173 -0.05748666
000100 e8 02 6a 3d 38 db 94 be a6 96 25 bd 2e d2 23 be
       0.057131678 -0.290735 -0.040426873 -0.15998146
000110 b8 67 a0 3d 71 ae 4c be 9d ea a0 be 09 db 74 bd
       0.07832283 -0.19988419 -0.31428996 -0.0597792
000120 22 5c 30 be bb c3 2b be ee bc 9e 3e 41 b4 58 be
       -0.17222646 -0.16773884 0.31003517 -0.21162511
000130 bb 37 1d be e2 93 0c 3e 62 1c 98 3d 74 5a 52 be
       -0.1535329 0.13728288 0.074272886 -0.20542318
000140 4f 37 ae 3c 8a 0f fc bd e2 86 72 3e 72 71 a8 be
       0.021266608 -0.12307651 0.23684266 -0.32899052
000150 9c 4a 18 be 2f f1 29 3b 40 63 63 be df a6 8a be
       -0.14872211 0.002593111 -0.2220583 -0.27080438
000160 07 63 c0 3d b2 e7 09 bd 20 e5 81 be 6a a4 c2 3d
       0.09393888 -0.033668227 -0.2537012 0.09504016
000170 3d 2e 1e bd 39 30 88 3e de c1 01 3e a2 e4 54 3d
       -0.038618315 0.2659929 0.1267161 0.051975854
000180 8f 07 f5 3d 9a 55 8c be 8b 2a a6 3d a6 d9 a9 be
       0.11964332 -0.2740906 0.08113583 -0.33173865
000190 e7 92 41 bb bf a5 c8 3d 19 cd 84 3e f5 ff 9d 3e
       -0.0029537024 0.097972386 0.25937727 0.30859342
0001a0 27 c1 57 3d 41 00 b0 3e 74 5f 16 3e 05 b0 aa bd
       0.05267444 0.34375194 0.1468485 -0.08334354
0001b0 ad 56 81 bd 29 fb 82 be a6 98 73 be e4 cc 04 be
       -0.0631536 -0.25582245 -0.237887 -0.12968785
0001c0 da af 32 be 12 56 35 be 30 5d 44 be 92 24 bd 3e
       -0.17449895 -0.17708614 -0.19176173 0.36941963
0001d0 a0 ad 33 be 25 2b 9f bd 9e ea d9 3d 24 35 67 be
       -0.17546701 -0.07771901 0.10640453 -0.22578865
0001e0 f5 1d 8a be dc e9 af 3e 36 5c 31 3e 5a bc 9c 3e
       -0.2697598 0.34358108 0.17320332 0.3061245
0001f0 b3 5c 93 bd 79 39 90 be 6b 9b 25 3e 2c 16 19 3c
       -0.07195415 -0.28168848 0.16172569 0.009343665
000200 d1 b2 5c bd a9 b0 17 3e 75 84 2a be a8 dc 2d be
       -0.05388147 0.14813484 -0.16652091 -0.16978705
000210 94 4c 60 3b 3f 09 ec bd 76 9d 25 3c 0d 88 74 3d
       0.0034225332 -0.11525201 0.010108342 0.05970006
000220 bc e0 9c bd 1a 16 5b be 56 f4 8c be c2 8c 57 bd
       -0.07660052 -0.2139515 -0.27530164 -0.05262447
000230 cc a3 82 bd 42 3e f4 3d d8 07 23 bd db c5 52 be
       -0.06378898 0.11925937 -0.039802402 -0.20583288
000240 b1 85 cc bd 23 26 5e be 66 fe de bd 94 75 47 3e
       -0.09986437 -0.21694236 -0.108883664 0.19478446
000250 86 32 64 ba 88 e4 04 be 6f 95 4e 3e b9 f4 cf bd
       -0.00087050383 -0.12977803 0.20174192 -0.10154099
000260 4a 11 74 bc 4e 6f 9a 3d 92 ea 10 be 0e 11 ef 3d
       -0.0148967 0.07540761 -0.14151981 0.11673175
000270 49 6f 35 be 41 b5 7c 3e e1 79 63 be d3 4a ad be
       -0.17718233 0.24678518 -0.22214462 -0.3384615
000280 30 5f 97 3e 23 01 a7 be a1 64 cc bd 2c c0 a7 bd
       0.2956481 -0.32618055 -0.09980131 -0.08190951
000290 49 7d dd be 8d d6 10 be 0a 84 2e 3e 64 14 20 3e
       -0.43259647 -0.14144345 0.17042556 0.15632778
0002a0 1d fb 0a 3e c6 ef c1 3d 3d eb 27 3d 73 43 83 be
       0.13572355 0.09469561 0.040995825 -0.25637397
0002b0 99 ea 56 3d b6 61 1a 3e 59 54 0d 3d 60 b5 fe bd
       0.052469824 0.15076336 0.03450427 -0.12436938
0002c0 35 06 77 3d 6c 59 3c 3d f4 25 24 bd 25 00 9f 3e
       0.060308654 0.045983717 -0.040075257 0.31054798
0002d0 a8 c7 48 be 72 6e 5b 3b 21 ec 5d be 09 eb 29 be
       -0.19607413 0.0033482579 -0.21672107 -0.16593565
0002e0 02 ea 69 be d3 34 b1 bd 87 2d 9c be 5d 9c c3 bc
       -0.22843173 -0.086526535 -0.30503485 -0.02387827
0002f0 13 04 33 3e f9 a9 c9 bd 80 bf 18 bd 52 a5 cc bd
       0.17482023 -0.09846873 -0.037292004 -0.0999247
000300 d1 ca 2e bc 0c b2 93 be 48 ec 65 be 4d ac 58 be
       -0.010668472 -0.28846776 -0.22453415 -0.21159478
000310 fc 9f 57 3e 00 83 9d bd 1c 76 28 3e 4d 82 c2 3c
       0.21057123 -0.07691002 0.16451305 0.023743773
000320 65 60 49 be 31 07 82 be 1f ef a1 be 7c f0 6d 3e
       -0.19665678 -0.25396112 -0.31627747 0.23236269
000330 42 6d 78 3e 87 00 58 3e cd ff 46 3d 27 6b 38 be
       0.24260429 0.21093951 0.048583794 -0.18009625
000340 a7 11 8d be 4f 61 f0 3d cb b9 49 bd d5 1a 22 be
       -0.2755253 0.1173731 -0.04924945 -0.15830548
000350 e2 84 37 be 30 42 b5 bd 60 4e b3 3e a9 e0 15 be
       -0.17921785 -0.08850515 0.35020733 -0.14636482
000360 70 1f f8 bc 63 2d 0a bc 71 19 db bd e8 7a 53 3b
       -0.030288428 -0.008433673 -0.10698212 0.0032269303
000370 41 06 89 bd 59 6b 62 3e e4 da 9b 3e 5e c2 24 3d
       -0.06690646 0.22111262 0.30440438 0.040224425
000380 3d cc b3 bd c8 ff 26 be 32 69 05 3e 5a b3 b4 3d
       -0.0877919 -0.1630851 0.1302841 0.08823271
000390 08 56 28 bc 08 67 8a be db 94 f7 bd d0 6e e1 bd
       -0.010274418 -0.27031732 -0.12088939 -0.11007464
0003a0 b3 b2 08 bd 79 c4 f5 bd da 13 77 3d 2c e8 70 be
       -0.033373546 -0.12000365 0.060321666 -0.23526067
0003b0 99 22 95 be d1 01 3e bd 7c b8 9a be 0c 99 4c 3e
       -0.29127958 -0.04638845 -0.30218875 0.19980258
0003c0 76 ff 6b 3e 4a 60 83 3e c2 72 48 3e a1 36 9e 3e
       0.2304667 0.256594 0.19575027 0.30901054
0003d0 ac b8 12 3e c4 e4 c2 3d ba 46 5a be 38 44 28 3e
       0.14328259 0.0951629 -0.21316043 0.16432273
0003e0 1e e8 88 3e 3e 25 b9 3a 64 91 de 3c bd 2f 1b 3d
       0.2673959 0.0014125479 0.027168937 0.037887324
0003f0 12 50 ff bd 45 26 14 3d 7b b2 32 be bf f4 0d be
       -0.12466444 0.03616931 -0.17450897 -0.13862894

fc2.weight f4 [3, 256]
000000 74 5c 5d be cb b2 41 3c ea 87 af bd 35 a2 1b be
       -0.216173 0.011822413 -0.085708454 -0.15198596
000010 c2 58 62 3e cf 26 ba bb 58 a9 97 3e 6d 28 ab 3d
       0.22104171 -0.005680896 0.29621387 0.0835732
000020 0a 00 c6 be ed 82 c9 3e 63 f4 16 3c 14 bb 96 3e
       -0.38671905 0.393577 0.00921354 0.29439604
000030 e8 d6 07 3e a5 58 30 be ec 3e 96 3e 72 c6 53 3e
       0.13265574 -0.17221315 0.2934488 0.2068117
000040 71 8c fe bd 60 da 4d 3e 21 6f b2 be 4d 8e 33 3e
       -0.12429131 0.20102835 -0.3485041 0.17534752
000050 62 80 b7 be 97 3c 18 be 12 ef 05 be f3 f0 04 3f
       -0.35840136 -0.14866863 -0.1307948 0.5193016
000060 93 33 61 be 2f 46 81 bd 2f 52 a8 3c 8e 28 2a 3e
       -0.2199233 -0.063122146 0.020547 0.16617033
000070 f2 b9 a2 3e fa 99 21 bd ae 3c d2 be 49 3a c5 3d
       0.3178249 -0.039453484 -0.4106192 0.09630258
000080 ab de fd bd cc 96 59 bd cc 16 5e be 48 78 1b be
       -0.12395986 -0.053122327 -0.21688384 -0.15182602
000090 cd 99 27 be 03 68 da bc c1 a3 e9 bd fb e9 b9 be
       -0.16367264 -0.026660925 -0.11408187 -0.36311325
0000a0 11 bf 97 3e 57 69 50 bc 3b b2 c8 3e 5a c1 7e bd
       0.2963796 -0.0127204275 0.3919848 -0.062196113
0000b0 ef 15 2f be d6 e7 83 be 87 f9 37 3d d6 d6 54 3e
       -0.17098211 -0.25762814 0.044915702 0.20785078
0000c0 99 4b c3 bd 2d 71 09 3e 43 7f eb 3e 54 1a 9d be
       -0.095359035 0.1342208 0.4599553 -0.3068415
0000d0 38 60 db be 74 c4 96 3e 16 9a b0 be 91 1a 76 3c
       -0.42846847 0.29446757 -0.34492558 0.015020982
0000e0 7b 5a b6 bd 75 6f ff 3c d0 2b ab 3e 4e 1f 4f be
       -0.089039765 0.031181077 0.33431864 -0.20226786
0000f0 8c c0 0a bd 0e 86 ce 3e cd 17 07 be da cb cc be
       -0.033875033 0.4033665 -0.13192673 -0.39999276
000100 19 f5 97 3d 6f bd a6 be f3 64 39 be 75 2a 32 be
       0.074197955 -0.325664 -0.18104915 -0.17399009
000110 85 6f 76 3e f4 8f d6 be fd 7e af 3c 82 68 75 3e
       0.24065979 -0.41906703 0.021422857 0.23965648
000120 7f 88 ad 3e 59 94 de be 9f b3 76 3e 39 04 90 3d
       0.338932 -0.43472555 0.24091958 0.070320554
000130 4c 8d d0 3b 00 1e 9d be dc 82 bd be 85 52 07 bf
       0.0063645 -0.3068695 -0.370139 -0.5286029
000140 0b e7 25 be ac a3 23 3d 41 e7 79 3e aa ac f6 bd
       -0.16201417 0.03995101 0.24404623 -0.12044652
000150 13 86 6c be 92 27 d0 bc 69 75 d7 be 35 13 c1 bb
       -0.2309802 -0.025409494 -0.42081764 -0.0058921822
000160 f2 01 d4 bd 80 f8 0c 3c 56 e4 5f bd 76 bb 0d 3e
       -0.103519335 0.008604169 -0.054661117 0.13841042
000170 ba 53 02 bf 94 28 9a 3d 53 e0 75 bd 4c 4e 94 bd
       -0.50909007 0.07527271 -0.060028385 -0.072414964
000180 23 26 6b be 4f bd 28 bf 56 f4 87 3e d6 7a 91 bc
       -0.22963767 -0.6591386 0.265536 -0.017758768
000190 e8 4a 4e bd b5 08 1a bd 89 6f 1f 3e 28 34 aa 3e
       -0.050364405 -0.03760596 0.15569891 0.33242917
0001a0 e0 cc 12 bd 7b 19 79 3e 31 4b 77 3e 2e 9e 1c be
       -0.035839915 0.24326126 0.24149777 -0.15294716
0001b0 c4 ff f5 bd f0 b0 8f 3c f7 e6 58 3d 7b 97 5e bd
       -0.12011674 0.017540425 0.05295464 -0.05434368
0001c0 a7 b0 3d be d4 21 53 be 7d 0d 31 be d9 e5 30 3e
       -0.18524419 -0.20618373 -0.17290302 0.1727518
0001d0 b9 5f a7 3e a5 c0 c7 be 08 b4 ac bd 14 41 ac be
       0.32690218 -0.39014164 -0.08432776 -0.336434
0001e0 88 cc d4 be 50 9f 33 3e 2b 9d 05 3e 96 71 b4 3e
       -0.41562295 0.17541242 0.13048236 0.3524291
0001f0 c1 f0 97 3e 4d 46 60 3d 7a 5f 54 3d c9 05 89 3c
       0.29675868 0.054754544 0.051848866 0.016726391
000200 73 ff 0a be c4 84 62 3e b7 a8 24 be a2 e9 18 be
       -0.13574009 0.22120959 -0.16079985 -0.14932874
000210 00 04 fb be 42 41 0c be 34 ff d1 3e 87 a3 ce be
       -0.4902649 -0.13696769 0.41015017 -0.40359136
000220 cf 40 0a be 2a 4a 9a be 3f 14 98 bc 7f 30 13 bc
       -0.13501285 -0.30134708 -0.018564342 -0.00898373
000230 ec 82 8d 3e 63 01 ec bc a5 fd c7 3e 9a ae 8d be
       0.27638948 -0.028809255 0.39060703 -0.27672273
000240 8e f4 59 be 2b 9f 0c be 42 66 19 bd 7e 10 20 3e
       -0.21284696 -0.13732593 -0.037451036 0.15631291
000250 8c b6 8e be 6d 25 ac be aa 29 30 3e 36 d2 04 bf
       -0.27873647 -0.33622304 0.17203394 -0.51883256
000260 a9 2e ee 3e d0 31 30 be 08 88 85 3e 49 3a b7 be
       0.46519974 -0.17206502 0.26080346 -0.35786656
000270 52 56 fd 3d 77 ee 69 3e 32 46 db be 00 1f de bc
       0.1236998 0.22844873 -0.42826992 -0.027114391
000280 40 2f 5a 3e f1 bb 5c be a7 33 78 3e f9 9d eb be
       0.21307087 -0.21556069 0.24238454 -0.4601896
000290 5c 7a 2b 3d 7e bc 13 3c cb 31 16 3f cd 40 5c bd
       0.041864738 0.009017108 0.5866973 -0.053772736
0002a0 de 1e 4a 3e 99 8c 91 3e 39 5b cc be 64 4b 02 bc
       0.19738337 0.2842758 -0.39913347 -0.007952545
0002b0 b7 f2 52 3e d0 38 d4 3c b7 c6 d5 be 45 01 8c bd
       0.20600401 0.025905997 -0.4175317 -0.0683618
0002c0 16 cf 58 3e d0 b0 73 be 3c e9 c0 be 93 a7 20 3e
       0.21172747 -0.23797917 -0.37677944 0.15688924
0002d0 37 e1 b1 be 65 53 c7 3c 65 15 0e be 16 11 46 be
       -0.34742138 0.024331758 -0.13875349 -0.19342455
0002e0 5a 58 0b be c1 6a 0d 3e 3c e2 21 bc 4b c8 21 bf
       -0.13607922 0.13810255 -0.009880599 -0.6319625
0002f0 5b 68 04 3e 28 69 13 bc ba 20 d1 bd b0 16 54 be
       0.12930433 -0.008997239 -0.1021132 -0.2071178
000300 12 ba 87 3e 58 f6 40 3d ad 88 57 be 86 e8 84 bd
       0.26509148 0.04710993 -0.21048231 -0.06489663
000310 85 13 99 3b 6f 69 f3 bd e6 4d fe bd 88 5c f3 bc
       0.0046715164 -0.11885344 -0.12417202 -0.029707208
000320 e9 5b 18 3c a9 65 9a be 42 ba 19 be c6 aa a1 3e
       0.009299257 -0.30155686 -0.15012458 0.31575602
000330 26 3c da 3e aa 47 0e 3e df 31 13 3f 99 6f 8b 3e
       0.42624015 0.13894525 0.5749797 0.2723358
000340 53 1c 13 bb 86 e1 9c be 37 3e 56 bd fa 6e 11 3e
       -0.0022447302 -0.3064081 -0.052305426 0.1420249
000350 89 25 98 be 15 2d 5f be 0e 30 60 3e 37 ab f8 bc
       -0.29716137 -0.21794541 0.21893331 -0.03035508
000360 ff a4 90 bd e0 bd 78 be c8 e9 c1 bd ce 94 70 bc
       -0.070627205 -0.24291182 -0.09468418 -0.014683915
000370 f5 05 f6 bd 81 b8 1e 3d fb 32 c5 3e e9 05 db 3d
       -0.12012855 0.038750175 0.38515458 0.10694487
000380 86 18 72 3e 35 5f 41 3d e6 05 06 be 35 90 13 be
       0.23642167 0.047209937 -0.13088188 -0.1441048
000390 7e ec 09 be b4 a5 aa 3c 02 d7 84 3e 29 30 85 be
       -0.13469121 0.020830967 0.25945288 -0.26013306
0003a0 19 99 1f be 4c a3 9b 3c e6 67 57 3e be 69 ee be
       -0.15585746 0.018998764 0.21035728 -0.4656505
0003b0 34 68 6a bd 88 fd 1d be 19 71 4c bd 92 cd 82 bc
       -0.057228282 -0.15428746 -0.049912546 -0.015967164
0003c0 58 96 2f 3e 83 8f 37 3d 31 38 0d 3e 4b fc 4a 3e
       0.17147195 0.044814598 0.13790967 0.19822805
0003d0 6b a4 06 3e 3f 6d cd be 2d e5 78 be 52 42 32 3e
       0.13148658 -0.4012241 -0.24306174 0.17408112
0003e0 9d 1f 0d 3e 45 38 1c 3e 78 ff ee bd 23 e6 50 3e
       0.13781591 0.1525584 -0.116698205 0.2040029
0003f0 2f b8 93 bd b7 81 7c bd f9 2c cd bd c6 88 c8 be
       -0.072128646 -0.061647143 -0.100183435 -0.3916685

fc2.bias f4 [3]
000000 22 ae c0 3d f9 fd e2 3c 1b a9 d9 bc
       0.09408213 0.027708994 -0.026569894
