models/model.pth (torch, 16799 bytes, 4 tensors)

fc1.weight f4 [256, 11]
0.04834813 0.25617856 -0.09486334 -0.07327853 -0.16027474 -0.08939848 0.097754836 0.10573835
-0.12987103 -0.30737123 0.25859684 -0.20624235 0.13818944 -0.0738945 -0.111674584 0.074963644
0.19830288 -0.08652521 -0.14252716 0.031204185 -0.2900144 -0.18448116 0.039346367 0.023914427
0.15942249 -0.08346653 0.047944866 0.18149854 0.18495727 -0.0452441 -0.17407444 -0.30320743
-0.21172842 0.23862249 0.24962051 0.11529073 0.2183372 0.2437704 -0.16829008 0.13802633
-0.12791906 -0.28074402 -0.121011674 -0.18318146 0.25481662 -0.165563 -0.2949737 0.1765302
0.13123132 -0.17837343 0.1404567 0.21250601 -0.1256509 0.21961431 0.25483325 0.24939923
0.040211797 0.21794982 0.2021933 -0.20559183 -0.024905154 0.07269215 -0.22917292 0.14261457
0.05292503 -0.22066674 -0.11074633 -0.04758405 0.046094336 0.15963055 0.28656033 0.056476876
0.034541786 -0.050555628 0.14241195 0.13729623 -0.11800611 0.06744826 -0.1527825 0.25065085
-0.00782477 0.27872697 0.26741004 -0.23192902 -0.12003216 0.06710861 -0.14717083 -0.06545234
0.06232831 -0.15266111 0.22492707 -0.18975249 0.12616038 0.05797675 -0.19789921 -0.12609977
0.10705232 -0.256392 -0.14241311 -0.18040313 -0.041469175 0.15022272 0.14888434 -0.019378692
0.240563 0.28871733 0.1129894 0.074980624 0.20644544 0.2490783 -0.2346777 0.02339387
-0.15705383 0.11108181 -0.2773619 -0.015174126 0.2725012 -0.17694917 -0.16798426 -0.03446192
0.19065242 0.17719378 0.28320077 -0.22235964 0.25197163 -0.29992193 -0.16656087 -0.04869672
-0.03438702 0.16013172 -0.014485112 0.062506944 0.072959125 -0.2792777 0.20152354 -0.20500079
-0.056970984 0.09070879 -0.11627646 -0.23459366 0.13093615 -0.2519473 0.025088817 -0.2641987
0.054819286 0.16578266 0.16188866 0.05556479 -0.07556909 -0.22404757 -0.23280036 -0.21815233
-0.28029016 -0.27174637 0.31534943 0.070736066 0.18030404 -0.22190705 -0.01914281 0.21116255
0.1495825 -0.028529016 0.1387547 0.2767389 0.028457403 0.23210359 0.086366914 -0.22960143
-0.2653252 0.28327703 -0.18786246 0.08520971 0.14014627 -0.15400693 0.012135323 -0.11388848
-0.27860102 -0.24052812 0.07130114 0.20517133 -0.24869561 0.10710851 -0.13786152 -0.08371633
0.11257287 0.11319957 0.20510527 0.02667299 -0.0344204 0.120354325 -0.19445843 -0.16420908
-0.050619543 0.023363411 -0.2242621 -0.29322225 -0.13892584 0.089000076 0.065834984 0.07423721
-0.05893685 -0.19913504 -0.030701496 -0.12938906 -0.03267481 -0.08429977 0.05523827 -0.13829294
-0.08762227 -0.18305758 -0.21695577 0.28473675 -0.27105188 -0.20739338 0.0017043034 -0.045295987
-0.12423904 0.27461264 0.016230997 -0.27725482 0.0018826425 -0.036234736 -0.19880512 0.24465783
-0.14080612 0.19353868 -0.28328702 -0.21667092 0.04534086 -0.20517266 -0.28488752 0.23340784
0.0038952827 0.18606618 -0.028364819 -0.020402018 0.1457723 -0.05999982 0.27832025 -0.222608
-0.25260854 0.23449498 0.141083 -0.28795424 0.18223774 0.13826108 -0.25985596 -0.20472935
-0.008530976 -0.077337325 0.105456196 0.057756938 -0.136484 -0.004295332 -0.054573663 0.03645372
00000000: b008 463d d629 833e b647 c2bd 0e13 96bd
00000010: 101f 24be 8d16 b7bd b033 c83d 598d d83d
00000020: e9fc 04be c35f 9dbe ce66 843e 3231 53be
00000030: 8881 0d3e 0056 97bd a5b5 e4bd 8a86 993d
00000040: e90f 4b3e 2134 b1bd a4f2 11be eb9f ff3c
00000050: c47c 94be a1e8 3cbe a829 213d 30e8 c33c
00000060: a63f 233e 80f0 aabd d661 443d c1da 393e
00000070: 7065 3d3e e151 39bd 9240 32be 013e 9bbe
00000080: 56cf 58be 7459 743e 859c 7f3e 8c1d ec3d
00000090: c993 5f3e f39e 793e 3c54 2cbe c656 0d3e
000000a0: 37fd 02be aebd 8fbe f8d4 f7bd ec93 3bbe
000000b0: 5377 823e 5989 29be cb06 97be 55c4 343e
000000c0: 8161 063e 86a7 36be e2d3 0f3e 2d9b 593e
000000d0: a1aa 00be 93e2 603e 8179 823e 8362 7f3e
000000e0: 20b5 243d 3d2e 5f3e c30b 4f3e aa86 52be
000000f0: e505 ccbc 9fdf 943d 4eac 6abe 8e09 123e
00000100: ebc7 583d 76f6 61be f9ce e2bd 7ee7 42bd
00000110: 6acd 3c3d 3176 233e 09b8 923e 4c54 673d
00000120: b07b 0d3d 6b13 4fbd 70d4 113e 6297 0c3e
00000130: 30ad f1bd 5022 8a3d 0473 1cbe 4f55 803e
00000140: 7733 00bc 4db5 8e3e f8e9 883e cd7e 6dbe
00000150: 6cd3 f5bd 3d70 893d f3b3 16be e00b 86bd
00000160: f84b 7f3d 3253 1cbe 4853 663e 7a4e 42be
00000170: 3030 013e 0779 6d3d 17a6 4abe 4c20 01be
00000180: 3f3e db3d d045 83be bed4 11be 99bb 38be
00000190: 95db 29bd fcd3 193e 2375 183e 10c0 9ebc
000001a0: 2656 763e c2d2 933e fd66 e73d 718f 993d
000001b0: 6f66 533e 620e 7f3e 5a4f 70be 80a4 bf3c
000001c0: b8d2 20be dc7e e33d 6102 8ebe e69c 78bc
000001d0: 4785 8b3e 2a32 35be 1104 2cbe f127 0dbd
000001e0: 633a 433e 4972 353e b1ff 903e 3fb2 63be
000001f0: 6d02 813e 5e8f 99be ef8e 2abe 3676 47bd
00000200: 67d9 0cbd 92f9 233e f752 6dbc a403 803d
00000210: 986b 953d 7dfd 8ebe 305c 4e3e baeb 51be
00000220: 685a 69bd 88c5 b93d 5a22 eebd 5239 70be
00000230: 2014 063e 3dff 80be 1087 cd3c 0d45 87be
00000240: 308a 603d eec2 293e 24c6 253e e897 633d
00000250: f8c3 9abd ba6c 65be 3863 6ebe 5363 5fbe
00000260: 3182 8fbe 5722 8bbe 7b75 a13e 12de 903d
00000270: 9fa1 383e 9a3b 63be 62d1 9cbc ff3a 583e
00000280: 282c 193e afb5 e9bc b615 0e3e b9b0 8d3e
00000290: 801f e93c 90ac 6d3e 23e1 b03d a31c 6bbe
000002a0: b4d8 87be b009 913e 045f 40be 6e82 ae3d
000002b0: 8182 0f3e feb3 1dbe 3cd3 463c 5d3e e9bd
000002c0: cba4 8ebe 014d 76be 5506 923d 6f18 523e
000002d0: 10aa 7ebe b55b db3d 922b 0dbe 7873 abbd
000002e0: 9b8c e63d 2dd5 e73d 1e07 523e 5081 da3c
000002f0: 68fc 0cbd 547c f63d 1c20 47be 6d26 28be
00000300: 7056 4fbd a064 bf3c f7a4 65be 3a21 96be
00000310: 9342 0ebe ac45 b63d 7ed4 863d ae09 983d
00000320: c467 71bd 0eea 4bbe b481 fbbc 917e 04be
00000330: 06d6 05bd 5ca5 acbd 8641 623d aa9c 0dbe
00000340: 4e73 b3bd 7273 3bbe a729 5ebe 04c9 913e
00000350: 50c7 8abe ee5e 54be ef62 df3a 4988 39bd
00000360: 0a71 febd 079a 8c3e def6 843c 58f4 8dbe
00000370: 00c3 f63a e06a 14bd 9293 4bbe 9587 7a3e
00000380: 7b2f 10be 012f 463e ff0a 91be fbde 5dbe
00000390: 56b7 393d c818 52be c7dc 91be 7702 6f3e
000003a0: 0048 7f3b 2288 3e3e 565d e8bc 2222 a7bc
000003b0: 5545 153e 5fc2 75bd fe7f 8e3e 5af3 63be
000003c0: e855 81be 741f 703e 1078 103e bd6e 93be
000003d0: 889c 3a3e 5094 0d3e d70b 85be 92a4 51be
000003e0: 82c5 0bbc 0863 9ebd 6bf9 d73d 8a92 6c3d
000003f0: 76c2 0bbe dbbf 8cbb a288 5fbd 7f50 153d

fc1.bias f4 [256]
0.16734391 0.28759673 0.14821842 -0.07342293 0.26660964 -0.1467914 -0.1685021 0.2256606
0.09114515 0.20704064 0.14795816 -0.10307446 -0.23114888 0.16357395 -0.28228122 0.056214936
-0.052424625 -0.093861386 0.15678014 -0.09788425 0.23577727 0.28487653 0.17695424 0.16950709
0.17232792 0.20892824 -0.1556711 -0.115548186 -0.25954705 0.15776376 0.06332303 0.024483597
0.031926624 0.0281225 -0.2848953 0.11234377 -0.1757384 -0.08180841 0.10475289 -0.25489813
-0.2703041 -0.2075181 -0.15724948 0.1588324 0.20039117 0.19585496 0.2531966 -0.24450554
0.2907009 0.04697953 -0.23289445 -0.28727466 -0.2040273 -0.23193382 -0.25033695 0.28256407
0.2883058 0.16062799 0.17625406 -0.2766425 -0.08704869 -0.06320655 0.20243146 -0.2848111
0.08681067 -0.04149679 -0.18565781 -0.023255048 0.12902293 0.07914881 0.18001264 0.09377841
0.24756989 0.23898251 -0.07747814 -0.27347642 -0.15130413 0.029667709 -0.29375848 -0.07176235
0.012113002 -0.22125222 -0.20911387 0.13030504 0.18661422 0.06865476 -0.17047392 0.01890796
-0.008150385 -0.19153485 -0.19425523 0.17676285 -0.2943402 0.12384943 -0.28254253 0.2859799
-0.0713421 0.013757865 -0.07157432 0.122761376 0.27839988 -0.04134567 -0.046132848 -0.3019168
-0.008246737 0.19060495 0.21178417 -0.24956486 -0.16873683 0.10814449 0.12605621 0.019526161
0.0848052 -0.1463057 0.241912 0.0029413463 -0.09233767 -0.04688828 0.15509634 -0.039707124
0.27896664 0.19069985 0.10808797 -0.1404831 -0.10187177 0.03162368 0.11891766 -0.19728564
-0.16808502 0.26718628 -0.18335682 0.065975346 0.15211667 0.1490774 0.112035684 0.15901047
-0.0090660155 0.1017864 0.04597213 0.0029544826 0.2907284 0.12923689 0.26481318 -0.007209231
-0.2892872 -0.16665062 0.0420224 -0.09941963 0.08089082 0.18306726 -0.18772526 0.018819321
-0.1917402 -0.22772768 -0.2722077 -0.2831693 0.14675933 0.029323127 -0.30157855 0.22199458
0.108288884 0.22582673 0.2629922 -0.03442536 -0.27016762 -0.22289988 -0.26063642 0.11478872
-0.19092923 -0.11641152 0.02168361 0.06683487 -0.14156944 0.17463289 0.2836162 -0.0006121567
0.07234912 0.028430995 -0.26088956 -0.17835477 -0.06483221 0.30563188 -0.03717536 0.18611012
0.15728246 0.2877278 0.26843098 -0.17686553 -0.030339515 0.06380579 -0.2722577 0.23062836
0.17550358 -0.22825412 0.0394305 0.1501688 0.1342461 0.10419669 0.14977296 0.1603061
-0.117587075 0.04001152 0.0731906 -0.17855273 -0.16294406 -0.050428204 0.22685662 -0.018859778
-0.21362266 -0.15236087 0.18944247 0.046385407 -0.051157407 -0.1295377 -0.19449355 -0.18683735
0.12706597 -0.093526594 0.25456956 -0.015499055 0.052548494 -0.15757239 0.09143396 -0.10048483
0.26412353 -0.27367526 0.07787853 0.011503492 -0.2837762 -0.06638782 -0.29246765 0.023914084
0.080193125 0.01497254 0.023697712 -0.069896266 0.09341562 -0.20573322 -0.0140755065 -0.12957788
0.041534156 -0.13768822 -0.20976835 0.15966964 -0.20294142 0.06742238 -0.2947122 0.21529756
-0.09795497 0.06617374 0.27085868 -0.14832748 -0.070367664 -0.11057501 -0.06064791 0.088635474
00000000: 345c 2b3e e13f 933e 92c6 173e c35e 96bd
00000010: 0f81 883e 7c50 16be d18b 2cbe 9313 673e
00000020: 4faa ba3d 7602 543e 5882 173e b418 d3bd
00000030: 4bb2 6cbe ee7f 273e 2a87 90be a241 663d
00000040: 34bb 56bd 663a c0bd f98a 203e 8a77 c8bd
00000050: 996f 713e 56db 913e 7e33 353e 4493 2d3e
00000060: bb76 303e 49f1 553e 3f68 1fbe 87a4 ecbd
00000070: 5ae3 84be d38c 213e 81af 813d d391 c83c
00000080: 7ec5 023d 2861 e63c ccdd 91be 7e14 e63d
00000090: c4f4 33be 2b8b a7bd af88 d63d 0282 82be
000000a0: 4d65 8abe a07f 54be 0206 21be f6a4 223e
000000b0: 5833 4d3e 348e 483e fca2 813e a95f 7abe
000000c0: c0d6 943e 9c6d 403d e27b 6ebe aa15 93be
000000d0: 88ec 50be 0f80 6dbe 2a2c 80be 3dac 903e
000000e0: d19c 933e aa7b 243e f27b 343e 16a4 8dbe
000000f0: 9546 b2bd 7072 81bd 314a 4f3e c3d2 91be
00000100: cbc9 b13d 8af8 29bd 151d 3ebe 5f81 bebc
00000110: 961e 043e c518 a23d 3c55 383e e50e c03d
00000120: f682 7d3e d5b7 743e dcac 9ebd 1a05 8cbe
00000130: 78ef 1abe b209 f33c 8367 96be 24f8 92bd
00000140: 9d75 463c f18f 62be f221 56be af6e 053e
00000150: cc17 3f3e de9a 8c3d b790 2ebe dee4 9a3c
00000160: 3189 05bc b621 44be d8ea 46be 5201 353e
00000170: c2b3 96be c5a4 fd3d 6aa9 90be f56b 923e
00000180: cf1b 92bd ab68 613c 8f95 92bd 516a fb3d
00000190: 6e8a 8e3e 145a 29bd ccf5 3cbd d794 9abe
000001a0: 521d 07bc f22d 433e f3dd 583e ee8d 7fbe
000001b0: 59c9 2cbe dc7a dd3d e114 013e 54f5 9f3c
000001c0: 59ae ad3d 29d1 15be c8b7 773e 9ac3 403b
000001d0: 881b bdbd ed0d 40bd 93d1 1e3e f0a3 22bd
000001e0: b7d4 8e3e d246 433e 3a5d dd3d cdda 0fbe
000001f0: 26a2 d0bd d587 013d 1a8b f33d 3f05 4abe
00000200: 7b1e 2cbe a4cc 883e e4c1 3bbe 151e 873d
00000210: 79c4 1b3e bfa7 183e f772 e53d a4d3 223e
00000220: a089 14bc 6375 d03d 464d 3c3d fe9f 413b
00000230: 5ada 943e ad56 043e 9895 873e 6a3b ecbb
00000240: 741d 94be 76a6 2abe ae1f 2c3d 859c cbbd
00000250: 16aa a53d fc75 3b3e 0d3b 40be fa2a 9a3c
00000260: 8b57 44be 7231 69be cf5e 8bbe 91fb 90be
00000270: 1448 163e 0e37 f03c 8168 9abe 8c52 633e
00000280: 90c6 dd3d 1f3f 673e eaa6 863e 9b01 0dbd
00000290: 6953 8abe de3f 64be 2372 85be 5916 eb3d
000002a0: f482 43be 2a69 eebd d3a1 b13c b8e0 883d
000002b0: 94f7 10be f7d2 323e 2436 913e 2479 20ba
000002c0: c72b 943d 1ee8 e83c 5193 85be a2a2 36be
000002d0: c0c6 84bd c87b 9c3e 3145 18bd a793 3e3e
000002e0: a70e 213e 0f51 933e c96f 893e 3d1c 35be
000002f0: 938a f8bc 9cac 823d 5c65 8bbe d729 6c3e
00000300: 36b7 333e 73bb 69be e081 213d dac5 193e
00000310: cf77 093e 1365 d53d 155e 193e 4827 243e
00000320: 7ed1 f0bd 1fe3 233d f4e4 953d 87d6 36be
00000330: cfda 26be ce8d 4ebd 1a4d 683e d27f 9abc
00000340: e6bf 5abe 7d04 1cbe 35fd 413e a0fe 3d3d
00000350: 6e8a 51bd 88a5 04be 5129 47be 4a52 3fbe
00000360: 951d 023e df8a bfbd f156 823e c0ef 7dbc
00000370: 173d 573d a85a 21be ba41 bb3d feca cdbd
00000380: 333b 873e 2a1f 8cbe c77e 9f3d 2479 3c3c
00000390: 1d4b 91be 56f6 87bd 52be 95be 78e7 c33c
000003a0: 4b3c a43d 624f 753c b421 c23c c625 8fbd
000003b0: b050 bf3d bbab 52be f49c 66bc 10b0 04be
000003c0: b81f 2a3d 24fe 0cbe 84cd 56be 7080 233e
000003d0: e0cf 4fbe bf14 8a3d 84e4 96be f776 5c3e
000003e0: 9e9c c8bd 1986 873d fdad 8a3e 29e3 17be
000003f0: ec1c 90bd 2775 e2bd f169 78bd 8486 b53d

fc2.weight f4 [3, 256]
0.044228364 -0.012800947 -0.030947745 -0.019127788 0.03593394 0.016862603 -0.018737623 -0.033718318
-0.044611774 -0.01530221 0.02479849 -0.023189954 0.054595083 0.013694288 -0.0683345 0.039716523
0.058464825 -0.006491497 -0.05494106 -0.012695118 0.04992712 0.0335237 -0.020428514 -0.013904226
-0.013525523 0.0422321 -0.036447436 0.055256087 0.05812449 -0.032911606 -0.024889767 -0.05703396
0.009570233 0.036170375 0.052501805 -0.050245635 -0.059482988 0.011328529 0.040343046 -0.038665116
-0.04984433 0.04610223 0.019598357 0.05369485 -0.016721418 -0.023960002 0.03595121 -0.034690596
0.04974513 -0.0005113831 -0.058186762 0.0304524 0.0141069805 0.03888379 -0.06143897 0.030550433
0.044843253 0.019296112 0.05363052 -0.039208926 -0.02678188 0.035886828 -0.0025612148 -0.041885942
-0.016086133 0.052380733 0.043936715 0.03918361 -0.042820036 -0.0061620018 0.05403053 -0.034604814
0.055606123 0.044596832 0.029747777 0.05505332 0.002776412 0.019586222 -0.04335941 -0.021014012
0.01527922 -0.01735733 -0.031237103 0.02373325 -0.016925825 -0.03897878 0.048084814 0.027048253
-0.018082503 0.007151212 0.029928146 -0.050795402 0.013058399 0.010470325 -0.03230797 0.0054384116
0.010746728 0.03242018 0.022065766 -0.015603861 0.04813891 -0.04708652 -0.014176416 0.036189284
0.044138156 -0.005179015 0.062428094 -0.03463073 0.057434727 -0.043855637 -0.005586748 -0.03184711
0.0052048247 0.011827446 -0.00794159 0.016509749 0.038504794 -0.030815888 -0.05996893 0.032234244
0.017650068 -0.045653254 -0.02525831 -0.001343126 0.031226046 0.05984014 -0.04997328 0.00570829
-0.01987676 0.00539825 -0.024596192 0.04409923 -0.013922935 -0.058756184 -0.02492773 0.04678385
-0.0047259917 -0.030358396 0.023124754 0.021009862 0.04942572 0.04093899 -0.032409675 0.032910068
-0.0032093674 0.025407262 -0.032609355 -0.0080178995 -0.06575233 0.05295032 0.00741804 -0.004888581
-0.049411345 -0.0032413385 0.029784167 -0.011181078 0.06556558 -0.042258702 0.011470032 -0.031162042
0.015579657 -0.059619557 0.033464212 -0.0002665259 -0.016902896 0.02234031 0.024452956 0.0371512
-0.023395468 -0.032682303 0.037505012 -0.024744181 0.0022041409 0.05506396 0.036707766 0.013895911
0.008263991 -0.011085801 0.0659015 0.009941955 -0.04500895 0.05333364 -0.021502279 0.013852563
0.050408207 0.039288398 0.009549304 -0.049224176 0.023261588 0.046437282 -0.011681473 -0.02573711
-0.0058986475 0.031593595 0.040859632 0.011355542 0.03357135 0.047928207 -0.047259413 -0.0098743215
0.011174454 -0.0029164935 -0.0056677093 0.00059187657 -0.047040977 0.06539399 -0.047181144 -0.022334479
-0.011084951 0.006388107 0.023022726 -0.00861292 -0.02345765 0.0068823285 0.035584208 -0.0016201376
0.020693589 0.033418268 -0.05083968 0.027210914 0.001633572 0.04274113 -0.026167879 -0.036590416
0.0059234435 0.04672181 -0.025874274 0.019527933 -0.022154745 -0.03562658 0.050799426 -0.05516009
0.039343636 -0.041275963 0.06708194 0.030829541 -0.035608336 0.02653328 -0.04055113 0.042761587
-0.020245738 0.022909218 -0.0071544545 -0.046913654 -0.007829569 0.0011964903 0.045620874 -0.029337455
-0.05982267 -0.050647292 -0.05558857 -0.0241675 0.021711476 0.053461082 0.03967934 -0.042371947
00000000: cd28 353d 10bb 51bc 2086 fdbc e1b1 9cbc
00000010: 782f 133d 7123 8a3c a57f 99bc 381c 0abd
00000020: d6ba 36bd 1fb6 7abc 3426 cb3c dcf8 bdbc
00000030: 189f 5f3d 025e 603c f5f2 8bbd cbad 223d
00000040: d078 6f3d a0b6 d4bb e009 61bd 2fff 4fbc
00000050: 6180 4c3d 2650 093d b359 a7bc 8dce 63bc
00000060: 289a 5dbc 91fb 2c3d e849 15bd 3554 623d
00000070: f213 6e3d 52ce 06bd a0e5 cbbc 719c 69bd
00000080: 77cc 1c3c 6327 143d 220c 573d 5ece 4dbd
00000090: 6fa4 73bd 4b9b 393c c03e 253d 505f 1ebd
000000a0: 9129 4cbd b1d5 3c3d bc8c a03c 22ef 5b3d
000000b0: 5bfb 88bc c447 c4bc 9341 133d ba17 0ebd
000000c0: 8dc1 4b3d 570e 06ba 3e55 6ebd 5077 f93c
000000d0: f720 673c 9c44 1f3d 6ea7 7bbd e744 fa3c
000000e0: 8fad 373d e112 9e3c adab 5b3d 8a99 20bd
000000f0: ac65 dbbc 11fe 123d 0eda 27bb 9890 2bbd
00000100: 11c7 83bc 2e8d 563d fcf6 333d fe7e 203d
00000110: 1064 2fbd 9eea c9bb 1e4f 5d3d c7bd 0dbd
00000120: 3fc3 633d 2bab 363d 9cb1 f33c 977f 613d
00000130: 77f4 353b 4973 a03c a399 31bd 9425 acbc
00000140: b255 7a3c f630 8ebc f4e4 ffbc 3c6c c23c
00000150: 07a8 8abc 37a8 1fbd 95f4 443d 4c94 dd3c
00000160: c221 94bc b754 ea3b df2b f53c d70e 50bd
00000170: e5f2 553c ba8b 2b3c 5d55 04bd b434 b23b
00000180: 0b13 303c 06cb 043d 44c3 b43c 56a7 7fbc
00000190: 4e2d 453d cbdd 40bd 3344 68bc 373b 143d
000001a0: 36ca 343d bab4 a9bb 9ab4 7f3d f4d8 0dbd
000001b0: ad40 6b3d f8a1 33bd 0a11 b7bb 1d72 02bd
000001c0: 3c8d aa3b e7c7 413c 711d 02bc 743f 873c
000001d0: 34b7 1d3d 9a71 fcbc fba1 75bd 0e08 043d
000001e0: e096 903c e8fe 3abd 84ea cebc d40b b0ba
000001f0: c4cd ff3c ef1a 753d c8b0 4cbd 9b0c bb3b
00000200: 96d4 a2bc cee3 b03b f47d c9bc 65a1 343d
00000210: 061d 64bc 53aa 70bd 3d35 ccbc 6ca0 3f3d
00000220: 7edc 9abb 2cb2 f8bc 2070 bd3c e01c ac3c
00000230: a072 4a3d a4af 273d 02c0 04bd b5cc 063d
00000240: 4054 52bb e422 d03c 6391 05bd 825d 03bc
00000250: 28a9 86bd 6fe2 583d 0813 f33b 6430 a0bb
00000260: 8d63 4abd a36c 54bb edfd f33c d730 37bc
00000270: 3f47 863d 7617 2dbd cdec 3b3c 8a47 ffbc
00000280: d141 7f3c a333 74bd c511 093d 80bc 8bb9
00000290: f177 8abc 0703 b73c 9151 c83c db2b 183d
000002a0: daa7 bfbc e1dd 05bd db9e 193d 4fb4 cabc
000002b0: 5973 103b bf8a 613d e25a 163d adab 633c
000002c0: b165 073c 38a1 35bc 5ef7 863d 95e3 223c
000002d0: 4e5b 38bd 6074 5a3d 8c25 b0bc dcf5 623c
000002e0: d678 4e3d dfec 203d af74 1c3c 4a9f 49bd
000002f0: 168f be3c 0535 3e3d a663 3fbc a2d6 d2bc
00000300: 7149 c1bb 4968 013d 6e5c 273d 980c 3a3c
00000310: 1d82 093d 5e50 443d 1693 41bd e8c7 21bc
00000320: 0f15 373c a422 3fbb 31b8 b9bb 2a28 1b3a
00000330: 0aae 40bd 49ed 853d 0441 41bd ccf6 b6bc
00000340: a89d 35bc 5353 d13b 289a bc3c 341d 0dbc
00000350: 422a c0bc 2885 e13b bfc0 113d cc5a d4ba
00000360: 9a85 a93c 98e1 083d 453d 50bd 6ce9 de3c
00000370: 951d d63a 5311 2f3d 055e d6bc d5df 15bd
00000380: 7219 c23b 5e5f 3f3d 49f6 d3bc 0bf9 9f3c
00000390: de7d b5bc 2ded 11bd 0f13 503d 8cef 61bd
000003a0: cb26 213d fc10 29bd 4262 893d 3c8e fc3c
000003b0: 0cda 11bd 525c d93c f118 26bd c626 2f3d
000003c0: 64da a5bc 1dac bb3c ea6f eabb 8828 40bd
000003d0: 9847 00bc 8dd3 9c3a f4dc 3a3d 1a55 f0bc
000003e0: 9e08 75bd 8973 4fbd d7b0 63bd ecfa c5bc
000003f0: 44dc b13c 02fa 5a3d ce86 223d 358e 2dbd

fc2.bias f4 [3]
-0.0106546385 -0.017435744 0.0015286016
00000000: cb90 2ebc 68d5 8ebc 5c5b c83a
